mlartifacts/102385796951572705/82a3a25546a34403bc854b6a95191a35/artifacts/mnist_model/data/model.pth (torch, 411328 bytes, 4 tensors)

weight f4 [128, 784]
000000 73 48 37 bd ea d1 85 3c 5f 1b 3c bc 72 a7 98 bc
       -0.044746827 0.016335446 -0.011481135 -0.018634532
000010 39 ad dd 3b 34 f0 da bc 65 b2 08 bd d1 6e 45 3c
       0.0067650345 -0.026725866 -0.033373255 0.0120503465
000020 9f 29 91 bc f4 dd f9 bb 2a 90 40 3c 78 66 cd bc
       -0.017720042 -0.007625336 0.011753121 -0.025073275
000030 e1 0d 36 bc 97 2a c0 3c 31 02 35 bd e4 fc 22 bd
       -0.011111707 0.023457808 -0.044191543 -0.039791957
000040 d2 7e 80 3b dd 0f 0b bd d5 90 ef 3b 2a 93 38 bd
       0.003921368 -0.033950675 0.0073109665 -0.04506222
000050 fe 6a 9c bb 97 fc 11 bd 9c 87 32 bd cb e2 66 bb
       -0.0047734967 -0.03564128 -0.04358636 -0.0035230394
000060 64 b6 89 ba 5b 38 bf bc 3b 46 67 3c 8d b6 2e bc
       -0.0010506627 -0.023342302 0.014115865 -0.010663641
000070 50 2f 2a bd 59 4f 4b 3c 16 72 43 bc 57 33 e7 bc
       -0.041549027 0.012409055 -0.011929056 -0.028222723
000080 53 4d 0c bd f6 27 ca 3c 5b 97 91 3c 08 1d 36 3c
       -0.03425343 0.024677258 0.017772367 0.01111532
000090 4b db cc bc 4f 2d ce 3b 39 be 93 3c a0 72 4d bc
       -0.02500691 0.0062920223 0.018035041 -0.012539536
0000a0 9d a6 b7 bc 5f e4 09 bd ae d2 c2 bb c7 f6 86 3c
       -0.022418315 -0.033665057 -0.005945525 0.016475094
0000b0 23 f9 80 3c 12 21 d7 3c ba e3 82 3c b3 f2 a4 3c
       0.015743798 0.026260886 0.01597773 0.02013526
0000c0 f6 c4 07 3c 40 17 95 3c 9f 72 4e 3c 45 46 04 3c
       0.008286705 0.018199563 0.01260057 0.008073394
0000d0 02 f3 03 bb bb 9b 13 bb 8a e1 87 3c fc e1 e4 3b
       -0.0020133858 -0.0022523243 0.016587038 0.0069849472
0000e0 86 c1 22 bd 19 69 e2 bc de 60 1a bd e4 f9 93 bc
       -0.03973534 -0.027638005 -0.037690036 -0.018063493
0000f0 0a 2e 2c bc b0 f1 47 3c 56 cd d8 3c d9 c5 fa 3c
       -0.010509023 0.012203619 0.0264651 0.03061192
000100 05 67 c4 bc 55 6e d3 bc 55 b2 a9 bb 86 22 88 bc
       -0.023974905 -0.025809446 -0.0051787295 -0.016618025
000110 d8 8b 97 3c 21 8e 1f 3d fa 13 26 3d 2e af bf bc
       0.0184993 0.038953904 0.040546395 -0.023398962
000120 38 ea 8e bc 99 c6 02 3d 67 98 cc 3c 99 d8 3e 3c
       -0.017445669 0.03192768 0.024975015 0.011648321
000130 59 70 5b bc da 2e f6 bc d7 a4 dd 3a 2b 90 21 bb
       -0.013393485 -0.030051637 0.0016910088 -0.0024652581
000140 69 83 2b 3b ee b5 df bc 31 ab 9e bc f7 cc 30 3c
       0.0026170856 -0.02730843 -0.01936874 0.010791055
000150 d7 f5 5d 3c 72 a4 25 bd a0 1d 26 bd 85 61 b1 bc
       0.013547382 -0.04044003 -0.040555596 -0.021652946
000160 1c 14 77 bc 38 47 5f 3b 00 62 fc bc 2f 5a f7 3b
       -0.015080478 0.003406955 -0.030808449 0.0075485925
000170 41 cf 06 3d 84 a5 4b 3c 50 1c 1e ba 4b eb cd 3c
       0.032912496 0.012429599 -0.00060314406 0.02513661
000180 ec d2 3c 3d e2 fa 83 3d 88 0d 35 3d 3b f4 87 3d
       0.04609959 0.064443365 0.044202358 0.0663838
000190 57 35 b1 3c ce e3 0c 3d 8a b2 34 bc 61 3c ed bc
       0.02163188 0.03439694 -0.011028895 -0.028959455
0001a0 0a 06 cc 3c b5 e0 be bb be dd 8c 3c 51 e3 f2 bc
       0.024905223 -0.005825127 0.017195579 -0.029649409
0001b0 67 9a bb bc b6 60 a3 bb db 6b 91 bc 03 8e bc 3c
       -0.022900773 -0.004985894 -0.017751625 0.023016935
0001c0 20 4f 2a bd 40 0f c8 bc 64 ec 30 bd 0a 59 53 3c
       -0.041579366 -0.024421334 -0.04319419 0.012899647
0001d0 15 ff 1f bd 93 64 20 bc 31 77 0c 3d bb 46 a4 3c
       -0.039061625 -0.009789604 0.034293357 0.020053258
0001e0 8e 1b 94 3d 2e 72 90 3d e2 38 5b 3d 56 7a 27 3d
       0.07231818 0.07053028 0.053521045 0.040888153
0001f0 7d 99 9d 3d 83 39 81 3d ec 0c 5c 3d 47 8e 71 3d
       0.07695291 0.063097976 0.05372326 0.058973577
000200 53 3d 0e 3d 1e d6 aa 3c b9 2e 00 bc 47 4b 8e bc
       0.034726452 0.020854052 -0.00782364 -0.01736988
000210 b6 5a 0b bd 41 e1 d0 3c 30 91 8b 3c 36 47 11 bd
       -0.034022056 0.025498034 0.017037004 -0.035468303
000220 63 af 9d 3c d1 bd 14 bb 02 8f c1 bc db f9 ae 3c
       0.01924867 -0.0022696147 -0.023627762 0.021359375
000230 d3 97 24 bd 5f 17 95 bc 4c de 1d bc 32 ec 71 bc
       -0.040183853 -0.01819962 -0.009635519 -0.014765786
000240 57 7c 37 bc 0f c9 13 bc fc 7f 5f 3d b7 04 6a 3d
       -0.0111990785 -0.009020104 0.054565415 0.057133403
000250 6f f0 41 3d f3 e8 f2 3b 9b 69 99 3c a4 6a 36 bd
       0.047348436 0.0074130236 0.018727114 -0.044535294
000260 0a e3 36 bd 1c 1c fe bd bb 67 2f bc 59 93 a6 bc
       -0.044650115 -0.12407705 -0.010705884 -0.020333933
000270 77 2a b3 3d 14 90 98 3c 11 4f f2 bc 36 41 ac bc
       0.08748334 0.01862339 -0.029578717 -0.021027189
000280 b1 25 16 3d a2 a2 ba 3c 68 74 e2 3b 56 be c0 3c
       0.03665704 0.022782627 0.0069108494 0.02352826
000290 c2 9e 9b 3a 8f fe aa 3c 3c b2 d5 bc 7c 82 fc 3b
       0.0011872875 0.020873336 -0.026085965 0.0077059846
0002a0 f0 47 23 bc fc 37 95 bc 05 72 2e bb 76 e1 04 3d
       -0.009965882 -0.018215172 -0.0026618254 0.03244158
0002b0 74 14 a1 bc 7f ae 62 3b 53 5c 68 3d d9 54 9c 3d
       -0.019663073 0.003458887 0.056728672 0.07633371
0002c0 3e 89 22 3d d8 49 19 3d a9 fe d6 bd 77 63 15 be
       0.039681666 0.03742394 -0.10497791 -0.14588724
0002d0 4a 70 0e be 74 2d 17 be f9 75 0d be dd fb e2 3b
       -0.13910022 -0.14763433 -0.13814534 0.006926997
0002e0 da b4 82 bd 44 2b 6e be 31 fe 5c be 3c 28 d0 bd
       -0.06382151 -0.23258692 -0.21581341 -0.10163924
0002f0 d3 5a 3c bc 78 d0 bc 3b 22 3b e1 bb 05 87 fd 3c
       -0.011496264 0.005762156 -0.0068735043 0.030948171
000300 86 2c 21 bc 28 26 78 3c a8 f1 10 bd b9 ae ca 3c
       -0.009837275 0.015145816 -0.03538671 0.024741517
000310 6c 7b 3d bb b1 f2 07 bd b9 06 88 bc 4f 8e 98 3c
       -0.0028912676 -0.033190433 -0.016604768 0.018622546
000320 dc 68 95 3d a9 d2 a0 3d 1f 04 52 3c 22 7f 0d 3d
       0.07295391 0.0785268 0.012818365 0.03454507
000330 91 5d 84 bc 9e 32 48 bd e2 05 f6 bd 8c 7c f8 bd
       -0.016157897 -0.048876397 -0.12012841 -0.121331304
000340 f8 9c 19 be 27 5f 35 be 14 7d ac bd ed 71 b0 bd
       -0.15001285 -0.17712079 -0.08422294 -0.086154796
000350 b4 53 30 be ce 7f 0f be a5 74 2a be 2e 41 0f be
       -0.1721943 -0.14013597 -0.16646059 -0.13989708
000360 5e 4b 41 bd ba ac b8 bc ba c9 a9 bc ba c4 84 3b
       -0.047191016 -0.0225433 -0.020726074 0.004051772
000370 37 7d c6 3c 06 5b a4 bc c6 5a 11 3d de ac e5 bc
       0.024229629 -0.020062935 0.03548696 -0.028036531
000380 e2 19 48 bb 79 fd bc bc 5a 9a b5 bc 28 a6 4c bc
       -0.0030533005 -0.023070084 -0.022168327 -0.012490787
000390 67 bd 77 3d d9 50 9d 3d 7f cc 3e 3d b3 3e 25 bd
       0.060483363 0.07681436 0.04658174 -0.040342998
0003a0 fd c9 0f be 6e 15 e2 bd 08 97 39 bd 02 7d 83 bd
       -0.14041896 -0.11039244 -0.04531005 -0.06420328
0003b0 e6 ff 2e bd e2 d2 7d bd d5 24 00 be e8 7c ea bd
       -0.042724513 -0.06196869 -0.1251405 -0.11449605
0003c0 79 b9 11 be ec 87 b4 bd af a5 de bd 9a e8 55 bd
       -0.14230908 -0.088149875 -0.108714454 -0.05222378
0003d0 c9 bc 11 3c d7 8d 2c bd 21 47 93 3c 81 8f b9 bc
       0.008895108 -0.042127457 0.017978253 -0.022651436
0003e0 94 b5 cc bc 57 08 88 3b ee 97 2f bc f2 45 d5 3a
       -0.024988927 0.004151385 -0.010717375 0.0016271456
0003f0 f7 3b 1d bd 0e b9 06 bd 71 24 13 bc 9d d1 a3 bc
       -0.038387265 -0.032891326 -0.008980856 -0.019997412

bias f4 [128]
000000 42 e7 22 bc 8b 6d 5c 3b d8 62 68 ba c7 37 80 3c
       -0.0099428315 0.0033634629 -0.00088648265 0.015651597
000010 09 2a 5c 3c 2f 22 91 bc c0 91 b3 3c a3 92 45 3b
       0.013437756 -0.017716495 0.021920085 0.0030147217
000020 b7 55 5f 3c cc b5 03 bd dc 86 a5 3b 3c 80 0e bd
       0.013631276 -0.032155797 0.005051477 -0.034790263
000030 89 c4 89 bb 9a 5c 76 bc b1 e8 9b bc 89 80 7a 3c
       -0.004204337 -0.015036726 -0.019031854 0.015289434
000040 27 41 2b bc 47 ab 61 3c 4e 0d a2 3c 02 62 ee 3b
       -0.010452545 0.013773746 0.019781735 0.007274867
000050 a9 d7 2e bd 3b f2 d8 3c 15 98 a0 3c d3 58 40 bc
       -0.04268614 0.026482692 0.019603768 -0.011739927
000060 e5 0f 54 3c 84 46 a5 bb 1e 90 1c bd ce 79 2a 3b
       0.012943243 -0.0050438065 -0.03822338 0.0026012543
000070 ba 74 fa bc cd 03 c7 bc 89 14 f4 3c 26 e8 bf bc
       -0.030573238 -0.024293805 0.029794948 -0.023426127
000080 d3 df d0 bc b6 59 12 bd 07 8d 0e 3d 85 67 d9 3c
       -0.025497353 -0.035730086 0.034802463 0.02653862
000090 5b 7c 45 bc a9 b8 a4 3c b7 98 be bc 85 d1 25 3c
       -0.012053574 0.020107584 -0.02326618 0.010120754
0000a0 89 c3 77 3c 96 06 9c bc e5 6f 34 3d d1 76 9a bc
       0.015122303 -0.01904611 0.044052023 -0.018855484
0000b0 63 15 20 bc 15 c0 03 bd 3c f2 ae bc 8b 51 3d bd
       -0.009770724 -0.032165606 -0.02135574 -0.046220344
0000c0 0b 38 c7 ba c4 65 de bc 83 64 f2 bc 92 9a 13 3d
       -0.0015199197 -0.027148135 -0.029588943 0.03603608
0000d0 2b 58 c9 3c 64 64 96 bc 75 53 42 3d 5d 27 96 bc
       0.024578175 -0.018358417 0.047442872 -0.018329317
0000e0 63 10 ea bc 9d c6 88 bc 00 34 d0 bc f6 e5 30 3c
       -0.028572267 -0.016696269 -0.02541542 0.010797014
0000f0 07 36 40 3c 6b 68 fa 3c 8b 7e 38 b7 7d b8 51 bc
       0.011731631 0.030567368 -1.0996718e-05 -0.012800333
000100 4c cb 07 3c 87 d1 d0 bc 00 a7 87 3c 56 09 fb bb
       0.008288216 -0.025490535 0.016559124 -0.007661025
000110 de 09 5f 3d 68 17 91 3c 8f d6 66 3c 70 d0 b7 3b
       0.05445277 0.017711356 0.014089241 0.0056095645
000120 ee 3a 78 bb 41 d1 cb bc 99 b3 5a bc 8b 06 a2 bc
       -0.0037876922 -0.024880053 -0.0133484835 -0.01977851
000130 53 2e 17 bc fb 1b 8f 3c 0b c2 59 ba 91 bb 41 3c
       -0.009227353 0.017469397 -0.0008306808 0.0118245045
000140 83 36 34 3b 2e 43 87 bc c0 65 4c 3c b6 85 98 bc
       0.0027498312 -0.016511526 0.012475431 -0.018618446
000150 7b d5 0a bd d8 d3 e0 bb d3 3e ba 3b 72 79 b9 3c
       -0.033894997 -0.0068611912 0.0056837588 0.022640917
000160 be cd 1d bd d7 47 63 3c 43 48 e1 bc 9a 44 7c 3c
       -0.03852629 0.013872108 -0.027500277 0.015397215
000170 7d 83 7a 3c b5 d0 83 bc f6 3a 12 3c 72 6d 42 3c
       0.015290138 -0.01609073 0.00892519 0.011866914
000180 af 04 64 3c 9b 32 b1 3b 79 ba 87 3b 27 d0 e9 3c
       0.013917132 0.005407644 0.0041421023 0.028541638
000190 be bd eb bc e0 fc 01 bd 04 4b e9 39 1d bf 8e bc
       -0.028777 -0.0317353 0.00044497114 -0.017425114
0001a0 0e 7b ed 3a 14 6b 22 bd 7a 2f 14 bd 04 00 90 bc
       0.0018118338 -0.0396529 -0.03617809 -0.017578132
0001b0 77 0a 03 3c 5d 63 43 bc 4e d6 03 bc 7d 1d de 3c
       0.0079981005 -0.0119255455 -0.0080467 0.02711367
0001c0 90 81 88 3c 4c 16 e9 bc 50 53 e2 3c 28 ce cc 3c
       0.016663343 -0.028453015 0.027627617 0.025000647
0001d0 b0 a4 6c 3b 56 90 dc 3a 01 d6 09 bd 97 a6 17 b9
       0.0036108904 0.0016827683 -0.033651356 -0.00014462542
0001e0 b7 c1 97 3a 54 24 2e 3b b6 48 ee 3c 5a 0f 0a bd
       0.0011578117 0.0026571946 0.029087406 -0.033706047
0001f0 b6 5a 06 bd 46 eb e4 3c 5f e2 e6 3c b5 f0 85 3c
       -0.032801352 0.027944218 0.028184114 0.01635013

weight f4 [10, 128]
000000 54 08 0c be 15 78 51 be db 72 a2 be e7 60 9f 3d
       -0.13675052 -0.20455964 -0.31728253 0.077821545
000010 77 af 78 bd 65 99 84 bc 8f fc 0b 3d dc b9 9a be
       -0.06071421 -0.016186425 0.034176406 -0.30219924
000020 c1 60 d2 3c 4e 17 84 bc 73 91 cc ba 9a 75 98 bd
       0.025680901 -0.016124394 -0.0015607312 -0.07444306
000030 a2 9c 90 3d d9 6e bd 3d df 63 c6 be 90 b8 60 be
       0.07061125 0.09249658 -0.3874807 -0.21945405
000040 44 ed 8e bc 19 bd 21 bc 90 83 83 bb 18 02 de 3d
       -0.017447121 -0.009871745 -0.004013486 0.10840243
000050 a0 6d 4a bc c6 34 67 3d c8 b4 69 bd bc 7c a7 3c
       -0.012355238 0.056446813 -0.057057172 0.02044522
000060 a1 a9 b6 3d 4e 5c 26 3e 3e c0 be 3c 88 5e 71 bc
       0.08919073 0.16246149 0.023285028 -0.014732011
000070 a9 f1 8c bd e7 00 3f 3d 77 ce 9b bd 57 83 d8 3d
       -0.068820305 0.04663172 -0.076077394 0.10571926
000080 b1 a1 17 3d 56 ba 0b bd 40 e4 3d 3d 4b 5f 57 3d
       0.037019435 -0.03411325 0.046360254 0.052581113
000090 4a 72 a8 bd f9 ea 8b bd 01 32 84 3d 66 db 97 be
       -0.08224924 -0.06831927 0.0645485 -0.29659575
0000a0 4e d0 1e ba 6a 6e 8f 3d 50 05 69 3d 37 6a ba 3c
       -0.00060582615 0.07003482 0.056889832 0.022755725
0000b0 44 77 f4 be cf 92 e4 3b 85 be e7 bb fd f2 c5 3d
       -0.47747242 0.0069755088 -0.0070722722 0.09665487
0000c0 e0 32 79 bd 22 ee 81 be 5d b0 54 3d 12 57 1f 3e
       -0.060839534 -0.25376993 0.051926006 0.15560558
0000d0 ee cf 30 bd 95 c9 30 3d 75 55 d5 3d e3 37 b7 3d
       -0.043167047 0.043160994 0.1041669 0.089462064
0000e0 ad 8e 58 3d b2 cd d6 3c f3 83 21 3d 47 25 99 bd
       0.05287044 0.02622113 0.039432477 -0.07477813
0000f0 eb 63 49 3c b7 c6 04 be 1b ff f7 bb 05 85 2a be
       0.012291889 -0.12966429 -0.0075682527 -0.16652305
000100 7c b6 7e bd b1 5b bb 3d fd 35 53 be a5 64 c0 3d
       -0.06218575 0.09148348 -0.20626064 0.093941964
000110 48 28 39 3d 41 9d 7e 3e b7 dc ba 3c 97 fc 7b bd
       0.04520443 0.24864675 0.022810323 -0.061520185
000120 e2 00 6b 3e c6 18 82 bd a4 21 45 3d 44 68 76 bd
       0.22949556 -0.063523814 0.048127785 -0.06015803
000130 44 ee c4 3c 99 98 52 bd 4e 6d c5 3c 16 7b a2 3d
       0.024039395 -0.05141506 0.024099972 0.07933633
000140 72 d4 c9 bd c2 cd 4d be a9 b8 e9 3d 22 d0 7d bd
       -0.09854974 -0.20098022 0.11412174 -0.06196607
000150 f4 c4 17 bd c5 17 ff 3c 29 41 6a 3e a6 7f 07 3e
       -0.037053064 0.031139264 0.22876419 0.13232288
000160 05 a3 84 3d de db 2a 3e 8e 6c 04 3d 98 14 55 3d
       0.06476406 0.16685435 0.03233009 0.052021593
000170 f8 22 ec bd 59 0d 5f 3b 9f 5e a0 3d e8 60 e7 3c
       -0.11530107 0.0034035055 0.078305475 0.02824445
000180 1f af 08 3d a2 07 56 3d 6b 72 09 3e 68 51 30 3d
       0.033370133 0.052253373 0.13422553 0.043046385
000190 2d b4 aa bd 5f ac 8c bd 6e 9a 95 bc 7a 7a 35 be
       -0.08335147 -0.06868815 -0.018262114 -0.17722502
0001a0 fc aa c6 be 98 36 fc bb 15 4b 86 be de 13 06 be
       -0.38802326 -0.007696938 -0.26229158 -0.13093516
0001b0 63 c7 e6 be 6d a4 92 bd 6b 7a 9b bd 25 43 9c bd
       -0.45073995 -0.07160268 -0.07591709 -0.07629994
0001c0 cc 87 7e 3d 4f 27 76 bd f8 a8 b8 bd ad e5 76 bd
       0.062141225 -0.06009608 -0.09016603 -0.06027763
0001d0 59 86 87 3c 09 f2 10 3e c8 24 9e be 76 ff 74 3d
       0.016543554 0.14154829 -0.30887437 0.05981394
0001e0 b4 9b 72 3d 32 f1 85 3c f6 b2 af bc 05 a6 4d 3d
       0.05923052 0.016350362 -0.02144764 0.050207157
0001f0 85 54 3d bd 60 ff 11 bd 5d 08 2a bb 51 64 46 bd
       -0.046223182 -0.035643935 -0.0025944926 -0.048435513
000200 1f 3e 91 3c d0 bb 12 3d 9d b1 da 3d d0 b5 7e 3c
       0.017729817 0.035823643 0.10678408 0.015546277
000210 67 e3 47 3d 81 2f a9 3d 25 28 9e bd c7 5d 30 be
       0.048800852 0.08261014 -0.07722501 -0.17223273
000220 82 71 80 3d da 23 53 3e a4 6b 39 3c e6 6e 2f 3d
       0.0627165 0.20619145 0.011317167 0.04283037
000230 cb a7 5c be af 88 d3 3d f6 8f 0a 3e 86 aa 38 3d
       -0.21548383 0.10328805 0.13531479 0.0450845
000240 cd 58 5c be 0f e9 a3 bb b2 66 14 bd 3e 97 b9 bd
       -0.2151825 -0.005002148 -0.03623075 -0.0906205
000250 3b ed 52 3d 0f 2e 94 3d a6 77 8d 3c 0e 36 04 bb
       0.05149577 0.072353475 0.017268967 -0.002017382
000260 67 0f c7 3c 6f 25 a8 be c3 70 53 3e f7 10 2f be
       0.024299337 -0.3284106 0.20648484 -0.17096315
000270 9a c0 92 3d 0c df 83 bd 52 c9 2b 3c b8 10 14 3c
       0.07165642 -0.06439027 0.01048501 0.009037189
000280 77 6a 9b bd c5 3a 2a 3e 35 3d f9 bd 1f 03 67 bd
       -0.07588666 0.16623981 -0.121698774 -0.05639946
000290 51 78 95 3c 35 95 85 bd d5 71 ad bd 30 e7 95 bd
       0.018245848 -0.065225996 -0.08468977 -0.07319486
0002a0 01 2b 1b ba 73 0b 0c 3b 1b c7 77 be 06 b3 3d 3e
       -0.0005919189 0.002136913 -0.24197046 0.18525323
0002b0 02 24 c7 bd bb 6b 8c 3d 11 39 8e 3d 1a 8a 84 3d
       -0.09723665 0.068564855 0.06944478 0.06471653
0002c0 ba 25 c7 3c d2 23 83 3d 28 14 6b 3d 5d fb d7 bd
       0.024309982 0.064033166 0.05739227 -0.105459906
0002d0 0e 17 92 be a8 f0 86 bb 89 c0 3c be f9 47 7f bc
       -0.28533214 -0.004118044 -0.18432821 -0.015581124
0002e0 7c a6 f8 3d 14 91 5c bb 18 c5 22 bc ad 10 9f 3d
       0.121411294 -0.003365581 -0.009934686 0.077668525
0002f0 9f a2 77 3d f3 e7 51 bc ea 18 f3 bc 30 f5 11 be
       0.060457822 -0.012811649 -0.029674966 -0.14253688
000300 d4 b2 90 bd 57 ea 91 3e f2 cc 9a 3e 35 43 1e 3e
       -0.07065359 0.284991 0.30234486 0.15455325
000310 c8 fe 3f 3c 46 24 ee 3c 04 69 74 3b d3 0a 01 bd
       0.011718459 0.02907003 0.003729404 -0.031504463
000320 1d 39 6b be 55 a9 c0 bd 92 3e 24 3c 9d 0e 93 3d
       -0.22971006 -0.094072975 0.010024684 0.07180522
000330 67 62 7d 3d 8d 70 0b bd cc a8 5e be 0c 84 73 3d
       0.061861422 -0.034042884 -0.21744078 0.0594521
000340 d9 3f ef bc 46 d6 cf bb f2 88 b8 bc b9 35 fe bd
       -0.02920525 -0.006342682 -0.022526238 -0.124125905
000350 3c 16 16 bd 5b cf e4 3d be a4 cd 3d 60 91 28 be
       -0.036642298 0.111723624 0.10041188 -0.16461706
000360 2e 7f a5 3d 35 48 15 3e 8c 83 a3 3d 9d 60 18 3e
       0.08080898 0.14578326 0.07984075 0.14880605
000370 8b 46 5a bd 9e 09 80 bd 80 86 4f 3e f2 53 19 bd
       -0.05328993 -0.06251834 0.20266151 -0.037433572
000380 4c 28 3d be a6 53 98 bc d1 d4 7d be ba ef 94 be
       -0.18472403 -0.018594574 -0.24788214 -0.29089147
000390 d8 c4 87 bc 8e d4 d2 3d aa 8d cd bc 3b 2a d9 3d
       -0.016573355 0.10294448 -0.025091965 0.10603758
0003a0 21 2a fb 3d 8c 3b 88 bd 09 2b 26 3e b9 86 b2 3d
       0.12263895 -0.06651983 0.16227354 0.087171026
0003b0 a1 59 7d be cc 9e 4d bd ea 44 c5 3c 46 82 95 3c
       -0.24741222 -0.05020027 0.024080712 0.018250596
0003c0 fd 4f 2a bd 57 a6 d1 bb cb dc ef bd 1e 13 94 3d
       -0.04158019 -0.006398003 -0.11712035 0.07230209
0003d0 a9 44 37 bd 7f ce 3b 3d 17 cd 09 3e e1 5c 00 bd
       -0.044743214 0.045851227 0.13457142 -0.031338576
0003e0 1a fa b0 3d d4 0c a7 3d 5e a0 41 3d ad 36 86 3d
       0.08641453 0.08156744 0.04727208 0.06553397
0003f0 21 d8 26 bd 97 13 51 bd 54 f9 8e bd 1a 96 3c bc
       -0.04073346 -0.051044073 -0.06981149 -0.011510396

bias f4 [10]
000000 73 48 ce bc d4 41 79 3c 67 bc 83 bd 86 10 4c bd
       -0.02518103 0.015213449 -0.06432419 -0.049820445
000010 c8 5a 08 bc e0 4d 4d 3d b4 8e ba ba a3 54 69 bd
       -0.008322425 0.050123096 -0.0014233203 -0.05696548
000020 99 6c 86 3d ee ec 9a 3c
       0.06563682 0.018911805
